dl2024-ex08-transformers-dl2024-sigma_learning/results/model.pth (torch, 3445 bytes, 9 tensors)

query f4 [1, 3, 8]
0.042860873 0.74249285 -1.4308689 -1.401133 -0.40553576 1.8056782 -0.3406519 0.7001314
-0.8999033 1.614996 -0.29420486 -0.5127402 -0.38529018 2.6451283 0.5681794 0.73821616
1.0983989 1.1320252 0.0059545166 -0.037498176 0.86534417 1.8656095 0.6336868 1.227909
00000000: e28e 2f3d 0314 3e3f b626 b7bf 5358 b3bf
00000010: 62a2 cfbe 7720 e73f ed69 aebe d03b 333f
00000020: 1060 66bf 30b8 ce3f 05a2 96be f142 03bf
00000030: c144 c5be c849 2940 3574 113f bcfb 3c3f
00000040: 5698 8c3f 34e6 903f 1b1e c33b b097 19bd
00000050: 3287 5d3f 4bcc ee3f 4c39 223f 1f2c 9d3f

norm.weight f4 [8]
1.3547662 3.59478 5.6445594 7.6731153 1.6338477 8.5942955 6.5632243 2.61467
00000000: fb68 ad3f e010 6640 3ba0 b440 298a f540
00000010: ec21 d13f 3c82 0941 ef05 d240 c156 2740

norm.bias f4 [8]
1.8895442 -1.1932265 -1.7850447 3.3089373 0.35848656 0.062308475 -1.7901193 -0.50752044
00000000: 96dc f13f a5bb 98bf 587c e4bf a1c5 5340
00000010: 8d8b b73e 2c37 7f3d a122 e5bf dcec 01bf

key.weight f4 [8, 3]
1.4643863 -3.4334276 2.3530724 -2.1717634 0.67614776 -0.8064704 -1.7567143 2.5684354
1.4045455 -2.3297086 1.0760791 0.30523047 -1.7440138 -2.035084 2.029233 -0.90819186
0.27226064 -0.39731386 -1.2526911 0.5216785 -0.04905258 -0.7963003 -1.0841972 1.0750622
00000000: 0371 bb3f 47bd 5bc0 bd98 1640 2cfe 0ac0
00000010: 0518 2d3f d874 4ebf 04dc e0bf 3f61 2440
00000020: 26c8 b33f f219 15c0 f6bc 893f 2b47 9c3e
00000030: d83b dfbf d13e 02c0 f4de 0140 437f 68bf
00000040: bf65 8b3e b96c cbbe 2f58 a0bf b98c 053f
00000050: 5ceb 48bd 56da 4bbf f9c6 8abf a39b 893f

key.bias f4 [8]
-1.0211239 -1.5099545 1.045621 -0.037911344 -0.295665 -1.2997214 -0.24099393 -1.3016013
00000000: 30b4 82bf 3046 c1bf e9d6 853f ed48 1bbd
00000010: 6761 97be 455d a6bf 1dc7 76be df9a a6bf

value.weight f4 [8, 3]
-0.26599702 1.2344202 -0.1930971 -0.67372555 -0.64496225 -0.14332476 0.3879842 0.30636168
0.3559139 0.43579683 0.43538705 0.6204507 -0.03539967 0.69852644 -0.09208845 -0.726398
-0.7121584 -0.035245154 0.39296088 0.45140985 0.56750405 -0.5788037 0.13369769 -0.15147369
00000000: c330 88be 7b01 9e3f 3fbb 45be 4779 2cbf
00000010: 3f1c 25bf bac3 12be dda5 c63e 70db 9c3e
00000020: 593a b63e c320 df3e 0deb de3e dbd5 1e3f
00000030: 3fff 10bd a1d2 323f df98 bcbd 38f5 39bf
00000040: 0350 36bf 395d 10bd 2b32 c93e 311f e73e
00000050: f247 113f 7b2c 14bf 0ce8 083e eb1b 1bbe

value.bias f4 [8]
0.055871733 -0.012920962 0.70418984 -0.007034688 0.1942979 -0.83019316 0.07090053 -0.11762387
00000000: c2d9 643d 71b2 53bc c945 343f 3d83 e6bb
00000010: 07f6 463e 8a87 54bf 4c34 913d c9e4 f0bd

out.weight f4 [11, 8]
1.2517067 0.27975127 -4.350826 4.3159266 -0.4318384 3.0920715 -6.410053 1.1938193
0.62049526 0.8723036 -3.2169106 0.7032832 -0.29616937 2.5653875 -1.9078948 0.5243281
-1.1020242 0.8200917 -1.294761 -2.1142242 -0.40770653 1.9160547 0.09126872 0.68335515
-1.0132393 1.0765508 0.41541737 -3.4472034 -0.25577414 1.063537 0.9254567 0.4324844
-0.26331273 0.6892574 1.1503166 -3.3292034 -0.58743876 0.093720846 1.3816309 -0.34747675
-0.2460353 -0.26085913 1.4853275 -2.3705385 -0.028348684 -0.7353178 1.5230539 -0.56110895
0.57402694 -0.9717253 1.3208016 -0.19985604 0.90081996 -1.4200599 1.22424 -0.59206414
0.26741117 -1.5490284 0.6986921 2.5239885 0.82038975 -2.3093429 -0.10703472 -1.2091925
0.2776106 -0.7574881 0.54700184 4.9933767 0.78275716 -3.0507512 -1.8767743 -0.5034392
0.2676549 -0.9632724 0.79991484 4.5567374 0.5117012 -2.8145628 -1.7851505 -0.11356239
-0.035652153 -0.53035986 0.88293916 0.3742991 0.5098986 -1.9921192 -0.27022448 0.403111
00000000: ed37 a03f 8f3b 8f3e f739 8bc0 121c 8a40
00000010: ec19 ddbe 80e4 4540 271f cdc0 12cf 983f
00000020: c7d8 1e3f 4a4f 5f3f dde1 4dc0 5e0a 343f
00000030: 83a3 97be 4f2f 2440 e635 f4bf 5e3a 063f
00000040: 210f 8dbf 88f1 513f baba a5bf 734f 07c0
00000050: e9be d0be 4841 f53f 18eb ba3d 5df0 2e3f
00000060: d3b1 81bf 6bcc 893f 96b1 d43e fb9e 5cc0
00000070: d4f4 82be fb21 883f bbea 6c3f 986e dd3e
00000080: edd0 86be 2c73 303f 933d 933f ab11 55c0
00000090: 6362 16bf b7f0 bf3d 48d9 b03f 79e8 b1be
000000a0: adf0 7bbe 548f 85be 361f be3f e7b6 17c0
000000b0: 803b e8bc ca3d 3cbf 6ef3 c23f d6a4 0fbf
000000c0: 6ef3 123f fdc2 78bf 0710 a93f 10a7 4cbe
000000d0: 239c 663f 86c4 b5bf e5b3 9c3f 8491 17bf
000000e0: 1eea 883e 9046 c6bf 7cdd 323f 0789 2140
000000f0: 1005 523f 46cc 13c0 0535 dbbd d2c6 9abf
00000100: fa22 8e3e bdea 41bf 5008 0c3f bec9 9f40
00000110: c662 483f 823f 43c0 243a f0bf 64e1 00bf
00000120: 100a 893e 0599 76bf 38c7 4c3f cbd0 9140
00000130: dafe 023f cc21 34c0 d07f e4bf 6693 e8bd
00000140: fe07 12bd aac5 07bf 4d08 623f 22a4 bf3e
00000150: b788 023f c3fd febf dd5a 8abe 9164 ce3e

out.bias f4 [11]
0.91929793 0.82251054 0.27385032 -0.84793246 0.086119995 0.00071749656 0.35151306 0.3656647
0.06969998 -0.21182549 -0.36717665
00000000: 1c57 6b3f 0d90 523f 1c36 8c3e 1a12 59bf
00000010: ae5f b03d 6116 3c3a 85f9 b33e 6738 bb3e
00000020: ddbe 8e3d c8e8 58be 94fe bbbe
